…
:1635744061336,"user_tz":-540,"elapsed":242,"user":{"displayName":"정찬휘","photoUrl":"https://lh3.googleusercontent.com/a/default-user=s64","userId":"06853102929161356417"}},"outputId":"e470917a-cccf-48f1-aff0-3dc9828f748b"},"source":["model.summary()"],"execution_count":null,"outputs":[{"output_type":"stream","name":"stdout","text":["Model: \"sequential\"\n","_________________________________________________________________\n","Layer (type)                 Output Shape              Param #   \n","=================================================================\n","conv2d (Conv2D)              (None, 148, 148, 32)      896       \n","_________________________________________________________________\n","max_pooling2d (MaxPooling2D) (None, 74, 74, 32)        0         \n","_________________________________________________________________\n","conv2d_1 (Conv2D)            (None, 72, 72, 64)        18496     \n","_________________________________________________________________\n","max_pooling2d_1 (MaxPooling2 (None, 36, 36, 64)        0         \n","_________________________________________________________________\n","conv2d_2 (Conv2D)            (None, 34, 34, 128)       73856     \n","_________________________________________________________________\n","max_pooling2d_2 (MaxPooling2 (None, 17, 17, 128)       0         \n","_________________________________________________________________\n","conv2d_3 (Conv2D)            (None, 15, 15, 128)       147584    \n","_________________________________________________________________\n","max_pooling2d_3 (MaxPooling2 (None, 7, 7, 128)         0         \n","_________________________________________________________________\n","flatten (Flatten)            (None, 6272)              0         \n","_________________________________________________________________\n","dense (Dense)                (None, 512)               3211776   \n","_________________________________________________________________\n","dense_1 (Dense)              (None, 2)                 1026      \n","=================================================================\n","Total params: 3,453,634\n","Trainable params: 3,453,634\n","Non-trainable params: 0\n","_________________________________________________________________\n"]}]},{"cell_type":"markdown","metadata":{"id":"N06iqE8VVrWj"},"source":["### Train the model"]},{"cell_type":"markdown","metadata":{"id":"oub9RtoFVrWk"},"source":[
…
